@font-face {
  font-family: roboto;
  src: url("./fonts/Roboto-Regular.ttf");
}

@font-face {
  font-family: Roboto-Bold;
  src: url("./fonts/Roboto-Bold.ttf");
}

@font-face {
  font-family: Roboto-Medium;
  src: url("./fonts/Roboto-Medium.ttf");
}

@font-face {
  font-family: Roboto-Light;
  src: url("./fonts/Roboto-Light.ttf");
}

.clickable {
  cursor: pointer;
}
.rdl-control {
  height: 300px;
}

/* below for map */
body {
  margin: 0px;
  width: 100%;
  height: 100%;
  /* font-family: "Roboto" !important; */
}

#root {
  height: 100%;
}

.map {
  height: 100%;
}

video {
  width: 100%;
}

.message-form {
  z-index: 999;
  position: absolute;
  top: 5px;
  right: 5px;
  max-width: 300px;
}

.thanks-form {
  z-index: 999;
  position: absolute;
  top: 5px;
  right: 5px;
  max-width: 220px;
}

.footer {
  z-index: 999;
  position: absolute;
  bottom: 35px;
  left: 5px;
  padding: 5px;
}

.marker-cluster-custom {
  background: #5638da;
  border: 3px solid #ededed;
  border-radius: 50%;
  color: #ededed;
  height: 40px;
  line-height: 37px;
  text-align: center;
  width: 40px;
}

.sr-only {
  display: none;
}

.cardCategoryWhite {
  color: "rgba(255,255,255,.62)";
  margin: "0";
  font-size: "14px";
  margin-top: "0";
  margin-bottom: "0";
}
.cardTitleWhite {
  color: "#FFFFFF";
  margin-top: "0px";
  min-height: "auto";
  font-weight: "300";
  margin-bottom: "3px";
  text-decoration: "none";
  font-size: 0.91rem !important;
}
.cardTitleWhite {
  margin-top: 8px !important;
}
.customeModel .modal-content {
  background-color: transparent !important;
  outline: 0;
  box-shadow: none !important;
}
.customeModelMargin {
  margin-top: 0.1rem !important;
}

/* .MuiTableHead-root {
  background-color: #347105;
} */
.MuiTableHead-root {
  background-color: #02501e;
}
.MuiTableCell-head {
  background-color: #02501e !important;
  color: #FFF !important;
  font-weight: bold;
  position: sticky;
  top: 0;
  z-index: 2;
  /* font-weight: 600 !important; */
}
/* .MuiTableCell-root {
  padding: 12px 8px!important;
  position: relative;
  font-size: 1em;
  border-top: 1px solid #DDD;
  font-weight: 300;
  line-height: 1.42857143;
  border-bottom: none;
  vertical-align: middle;
} */
.MuiTableCell-root {
  font-family: inherit !important;
  padding: 7px !important;
  
  overflow: hidden;
}
.MuiOutlinedInput-multiline {
  padding: 5px 2px !important;
}

.MaterialDatatableHeadCell-sortActive-24 {
  color: white !important;
}
.sidebar .nav,
.sidebar .sidebar-nav {
  width: 250px;
}
.app-header .navbar-brand {
  width: 215px;
}
.navbar-brand-minimized {
  width: 317px;
  padding-left: 134px;
}
html:not([dir="rtl"]) .sidebar {
  margin-left: -250px;
}
@media (max-width: 991.98px) {
  .sidebar {
    position: fixed;
    z-index: 1019;
    width: 250px;
    height: calc(100vh - 55px);
  }
}
@media (max-width: 319px) and (min-width: 270px) {
  .app-header .navbar-brand {
    width: 202px;
  }
  .app-header .navbar-brand {
    position: absolute;
    top: 0;
    left: 38%;
    margin-left: -77.5px;
  }
}
@media (min-width: 992px) {
  .sidebar-fixed .sidebar {
    position: fixed;
    z-index: 1019;
    width: 250px;
    height: 100vh;
  }
  .sidebar-minimized .sidebar .nav > .nav-dropdown > .nav-dropdown-items {
    display: none;
    max-height: 1000px;
    background: #02501e;
  }

  html:not([dir="rtl"]) .sidebar-lg-show.sidebar-fixed.sidebar-minimized .main,
  html:not([dir="rtl"])
    .sidebar-lg-show.sidebar-fixed.sidebar-minimized
    .app-footer,
  html:not([dir="rtl"]) .sidebar-show.sidebar-fixed.sidebar-minimized .main,
  html:not([dir="rtl"])
    .sidebar-show.sidebar-fixed.sidebar-minimized
    .app-footer {
    margin-left: 50px;
  }
  .sidebar-minimized .sidebar .sidebar-minimizer {
    background-color: rgb(5, 64, 26, 1) !important;
  }
  .sidebar-minimized .sidebar .nav-item:hover > .nav-link {
    background: #4fbb61;
  }
  .sidebar .sidebar-minimizer:hover {
    background-color: rgb(5, 64, 26, 1) !important;
  }
  html:not([dir="rtl"]) .sidebar-lg-show.sidebar-fixed .main,
  html:not([dir="rtl"]) .sidebar-lg-show.sidebar-fixed .app-footer,
  html:not([dir="rtl"]) .sidebar-show.sidebar-fixed .main,
  html:not([dir="rtl"]) .sidebar-show.sidebar-fixed .app-footer {
    margin-left: 250px;
  }
}
.app-body .main {
  flex: 1 1;
  min-width: 0;
  margin-left: 0px;
}
.sidebar .nav-link.active {
  color: #fff;
  background: #008a4a;
}
.sidebar {
  display: flex;
  flex-direction: column;
  padding: 0;
  color: #fff;
  background: #02501e;
}
.sidebar .nav-link.active .nav-icon {
  color: #f9f9f9;
}
.sidebar .sidebar-minimizer:hover {
  background-color: rgb(9, 130, 48, 1);
}
.sidebar .sidebar-minimizer {
  position: relative;
  flex: 0 0 50px;
  cursor: pointer;
  background-color: rgb(5, 64, 26, 1);
  border: 0;
}
.sidebar .nav-link {
  padding: 0.8445rem 1rem;
}
.sidebar .nav-link:hover {
  color: #fff;
  background: #4fbb61;
}
.sidebar .nav-link .nav-icon {
  color: #fff;
}
.PrivateTabIndicator-colorSecondary-3 {
  background-color: #02501e !important;
}
.PrivateTabIndicator-colorSecondary-7 {
  background-color: #02501e !important;
}
.MuiTab-textColorSecondary.Mui-selected {
  color: #f2be11 !important;
}
:focus {
  outline: none !important;
}
.list-group-item.active {
  background-color: #008a4a;
}

/* below added from main css & index css original code */

.setleft {
  padding-left: 5%;
}
/* Search Dropdown Start */
.css-wmw4vi-ReactDropdownSelect {
  border-radius: 5px !important;
  min-height: 44px !important;
  font-size: 14px !important;
}
.react-dropdown-select-input {
  font-size: 14px !important;
}

/* .col-xs-2 {
  color: #fff;
} */
.col-half-offset {
  margin-left: 1.166666667%;
}
.headerP {
  text-align: left;
  /* width: 70%; */
  float: left;
}

.headerSelect {
  /* width: 30%; */
  float: right;
  /* background-color: aliceblue; */
}
.clearfix {
  clear: both !important;
}

.farmerTitle {
  font-size: 24px;
  color: #333333;
  line-height: 1.2;
  text-align: left;
  width: 100%;
  display: block;
  /* border-bottom: 1px solid #ddd; */
  padding-bottom: 10px;
}
.farmerButtons {
  float: left;
  margin: 5px !important;
}

/* css from main */
span.error-msg {
  color: red;
  font-size: 12px;
  float: left;
}
span.success-msg {
  color: green;
  font-size: 12px;
  float: left;
}

@font-face {
  font-family: "Material Icons";
  font-style: normal;
  font-weight: 400;
  src: url(https://fonts.gstatic.com/s/materialicons/v48/flUhRq6tzZclQEJ-Vdg-IuiaDsNc.woff2)
    format("woff2");
}

.material-icons {
  font-family: "Material Icons";
  font-weight: normal;
  font-style: normal;
  font-size: 24px;
  line-height: 1;
  letter-spacing: normal;
  text-transform: none;
  display: inline-block;
  white-space: nowrap;
  word-wrap: normal;
  direction: ltr;
  -webkit-font-smoothing: antialiased;
}
span.MuiFormLabel-asterisk.MuiInputLabel-asterisk {
  color: red;
}

/* .MuiSelect-select {
  min-width: 150px !important;
} */
.MuiList-root {
  padding: 11px !important;
}

.MuiFormLabel-root {
  font-size: 14px !important;
}

.MuiFormHelperText-root {
  font-size: 11px !important;
}

.btn .btn-primary {
  background: #2196f3;
  color: white;
  font-size: 15px;
}
/* 
.MuiSelect-selectMenu {
  font-size: 15px !important;
} */
.MuiExpansionPanelSummary-root {
  background: rgb(41, 86, 61) !important;
}
span.my-account {
  color: white;
  font-size: 15px;
}
.MuiFormGroup-root {
  display: block !important;
  /*margin-left: 28px;
  margin-top: -10px;
  */
}
.MuiTypography-body1 {
  font-size: 0.75rem !important;
  color: rgba(0, 0, 0, 0.54) !important;
}

span.checkboxLabel {
  color: rgba(0, 0, 0, 0.54) !important;
}

button.MuiButtonBase-root.MuiTab-root.MuiTab-textColorPrimary,
button.MuiButtonBase-root.MuiTab-root.MuiTab-textColorPrimary.Mui-selected {
  cursor: default;
}

.MuiOutlinedInput-input {
  padding: 13.5px 10px !important;
}

.MuiFormControl-root {
  width: 100%;
}
.MuiPaper-elevation1 {
  margin-bottom: 20px;
}
.textleftheading {
  text-align: left;
  margin-left: 0px !important;
}
.card-body {
  flex: 1 1 auto;
  padding: 1.25rem;
  border-radius: 0.25rem;
  border: 1px solid rgba(224, 224, 224, 1);
}
.regbut {
  position: absolute;
  right: 40px;
  z-index: 9;
  top: 33px;
}
.MuiToolbar-gutters {
  width: 100%;
  padding-left: 0px !important;
}
.MTableToolbar-title-86 {
  width: 28%;
  text-align: left;
}
.no-border {
  border: none !important;
}
.MuiStepper-root {
  padding: 20px 0px !important;
}
.MuiStep-horizontal {
  padding-left: 0px !important;
}
.MuiStepConnector-root {
  padding-right: 20px;
}
.no-padding {
  padding: 0px !important;
}
.mt-20 {
  margin-top: 20px;
}
.mt-10 {
  margin-top: 10px;
}

.MuiInputBase-inputTypeSearch {
  font-size: 12px !important;
  -moz-appearance: textfield;
  -webkit-appearance: textfield;
}

.MTableToolbar-spacer-84 {
  display: none;
}

.MTableToolbar-searchField-87 {
  display: table !important;
}
.MuiExpansionPanelDetails-root {
  padding: 0px 0px 24px !important;
}
.btn-success {
  background-color: #4caf50 !important;
  box-shadow: 0 14px 26px -12px rgba(76, 175, 80, 0.42),
    0 4px 23px 0px rgba(0, 0, 0, 0.12), 0 8px 10px -5px rgba(76, 175, 80, 0.2);
}
.btn-success:hover,
.btn-success:focus {
  color: #fff;
  box-shadow: 0 14px 26px -12px rgba(153, 153, 153, 0.42),
    0 4px 23px 0px rgba(0, 0, 0, 0.12), 0 8px 10px -5px rgba(153, 153, 153, 0.2);
  background-color: #999;
}

.btn {
  transition: box-shadow 0.2s cubic-bezier(0.4, 0, 1, 1),
    background-color 0.2s cubic-bezier(0.4, 0, 0.2, 1);
}
.MuiTableSortLabel-root:hover {
  color: #fff !important;
}
.MuiTableSortLabel-icon {
  color: #fff !important;
  opacity: 1 !important;
}
.whitetext {
  color: #fff;
}
.whitetexticon {
  color: #fff;
  padding-right: 10px;
}
.ml-5 {
  margin-left: 5%;
}
.MTableToolbar-title-37 {
  width: 30%;
}
.navbar-expand-lg .navbar-collapse {
  display: flex !important;
  flex-basis: auto;
  /*position: fixed;*/
  width: 100%;
  background-color: #fff;
  bottom: 0;
}
.navbar-navnew {
  margin-top: 13px !important;
  margin-bottom: 0px;
}
.seticon {
  margin-top: 10px !important;
  margin-left: 10px !important;
}
.logoutset {
  margin-top: 10px !important;
  margin-left: -20px !important;
}
.MuiTypography-h6 {
  text-align: left !important;
  padding-left: 15px;
  width: 400px;
}
.MaterialDatatableToolbar-actions-245 {
  text-align: left !important;
}
.MaterialDatatableBodyCell-root-591 {
  word-break: break-all;
}

.dropdown-toggle::after {
  /* margin-top: -10px; */
  color: #fff;
}
.navbar-light {
  padding-left: 0px;
}
#ddl li .dropdown-menu {
  left: -40px !important;
}
input[type="search"] {
  float: left !important;
  padding: 5px;
  border: 1px solid red;
  margin: 1% 2% 1%;
}

.files {
  border: 1px solid black;
  /* margin-top: 5%; */
  margin: 2%;
  padding: 2%;
}

.content-wrapper {
  overflow: scroll !important;
}

.rsg--para-30 {
  margin-top: 0;
  margin-bottom: 16px;
  color: #333;
  font-family: "Roboto", "Oxygen", "Ubuntu", "Cantarell", "Fira Sans",
    "Droid Sans", "Helvetica Neue", sans-serif;
  font-size: 15px;
  line-height: 1.5;
}

.custom-MuiSelect .MuiSelect-select {
  padding: 5px !important;
}

.content-wrapper {
  overflow: hidden !important;
}

.navbar-expand-md .navbar-brand {
  min-width: 20.625rem !important;
}

.navbar-collapse {
  margin-left: -6.25rem !important;
}
.navbar-expand-lg .navbar-brand {
  min-width: 21.85rem !important;
}

.searchbox {
  /*definint width of form element*/
  width: 350px;
  /*centering the form element*/
  margin: 100px auto;
}
input[type="search"] {
  padding: 8px 15px 6px 37px !important;
  /* font-size: 36px; */
  color: #000;
  /*removing boder from search box*/
  border: none;
  /*defining background image as a search symbol*/
  background-image: url(data:image/png;base64,…);
  background-repeat: no-repeat;
  /*background-size*/
  -webkit-background-size: 35px 35px;
  -moz-background-size: 35px 35px;
  -o-background-size: 35px 35px;
  background-size: 20px 20px;
  background-position: 10px 9px;
  /*changing background color form white*/
  background-color: #fff;
  border: 1px solid #cecece;
  width: 350px;
  border-radius: 0.2rem;
}
.set-nav-width {
  width: 500px;
  float: left;
}

/*now using placeholder property to change color of placholder text and making it consitent accross the browser by use of prefix*/
input[type="search"]::-webkit-input-placeholder {
  color: #b1e0de;
}
input[type="search"]:-moz-placeholder {
  /* Firefox 18- */
  color: #b1e0de;
}
input[type="search"]::-moz-placeholder {
  /* Firefox 19+ */
  color: #b1e0de;
}
input[type="search"]:-ms-input-placeholder {
  /* interner explorer*/
  color: #b1e0de;
}

/*now first we will hide the suggestion list*/
.suggestions li {
  overflow: hidden;
  height: 40px !important;
  -webkit-transition: all 0.3s ease-in-out;
  -moz-transition: all 0.3s ease-in-out;
  -o-transition: all 0.3s ease-in-out;
  transition: all 0.3s ease-in-out;

  background-color: rgb(255 255 255);
  border-bottom: 1px solid #cecece;
  padding: 10px;
}
.suggestions {
  position: absolute;
  z-index: 1000;
  top: 45px;
  width: 370px;
  left: 4px;
}
/*and make the suggestion reappear when user focus on search field*/
input[type="search"]:focus + .suggestions li {
  height: 30px;
}

.byline {
  text-align: center;
  font-size: 18px;
}
.byline a {
  text-decoration: none;
  color: #1f5350;
}

.custom-option {
  position: relative;
  display: block;
  padding: 0 20px 0 20px;
  /* font-size: 0.7rem;
  font-weight: bold; */
  color: #3b3b3b;
  line-height: 35px;
  cursor: pointer;
  transition: all 0.5s;
}
.custom-option:hover {
  cursor: pointer;
  background-color: #008a4a;
  color: white;
  border-radius: 0.5rem;
  /* font-weight: bold; */
}
.custom-option.selected {
  color: #ffffff;
  background-color: #305c91;
}
.lilist {
  display: block;
  /*removing underlines from anchor element*/
  text-decoration: none;
  color: #000;
  background-color: #ace5e2;
  padding: 10px;
  cursor: pointer;
}
ul .lilist li:hover {
  background-color: #000000;
  display: none !important;
}

.suggestions ul {
  /*removing predefined bullet points from list*/
  list-style: none;
  /*removing padding from list items*/
  padding: 0;
  width: 100px;
}
.suggestions ul .lilist {
  margin-bottom: 10px;
}
/*adding effect when the mouse is hovered over list item*/
.suggestions ul .lilist li:hover {
  color: #b23b61;
  background: #ff00ff;
}
/*moving it slightly toware right when hovered*/
/* .suggestions ul .lilist:hover {
  
  -webkit-transform: translateX(20px);
  -moz-transform: translateX(20px);
  -ms-transform: translateX(20px);
  -o-transform: translateX(20px);
  transform: translateX(20px);
} */

.userli {
  color: #b23b61;
}

/* .MuiToolbar-gutters {
  width: 100% !important;
} */
.MuiPickersToolbar-toolbar {
  background-color: #4caf50 !important;
  width: 100%;
  padding-left: 24px !important;
}

.MuiPickersMonth-monthSelected {
  color: #fefeff !important;
  background-color: #2196f3 !important;
}

.dropdown-trigger {
  line-height: 25px !important;
  border-radius: 0.2rem !important;
}

.iconBadge {
  font-size: 11px;
  /* margin-top: -43px; */
  display: block;
  padding-right: 0.6em;
  padding-left: 0.6em;
  border-radius: 10rem;
  position: absolute;
  top: 50%;
  margin-top: -26px;
  margin-left: 10px;
}

.iconBadgeRed {
  background-color: #e80a0a;
  color: #ffffff;
}
.iconBadgeBlue {
  background-color: #f9b115;
  color: #4f5d73;
}
.iconBadgeYellow {
  background-color: #39f;
  color: #ffffff;
}

@font-face {
  font-family: "Material Icons";
  font-style: normal;
  font-weight: 400;
  src: url(https://fonts.gstatic.com/s/materialicons/v36/flUhRq6tzZclQEJ-Vdg-IuiaDsNc.woff2)
    format("woff2");
}

.material-icons {
  font-family: "Material Icons";
  font-weight: normal;
  font-style: normal;
  font-size: 24px;
  line-height: 1;
  letter-spacing: normal;
  text-transform: none;
  display: inline-block;
  white-space: nowrap;
  word-wrap: normal;
  direction: ltr;
  -webkit-font-feature-settings: "liga";
  -webkit-font-smoothing: antialiased;
}

/* mdl-demo is a custom classname to increases the specificity of our styles. It can be anything. 
 * The idea is that it is easy to extend/override builtin styles with very little effort.
 */

.mdl-demo .dropdown-trigger > span:after {
  font-size: 12px;
  color: #555;
}

.mdl-demo .toggle {
  font: normal normal normal 18px/1 "Material Icons";
  color: #555;
  white-space: pre;
  margin-right: 4px;
}

.mdl-demo .toggle.collapsed::after {
  cursor: pointer;
  content: "\E5CF";
  vertical-align: middle;
}

.mdl-demo .toggle.expanded::after {
  cursor: pointer;
  content: "\E5CE";
  vertical-align: middle;
}

/* checkbox styles */
.mdl-demo .checkbox-item {
  position: relative;
  width: 1rem;
  height: 1rem;
  margin-right: 0.75rem;
  cursor: pointer;
  -webkit-appearance: none;
  -moz-appearance: none;
  appearance: none;
  outline: 0;
  vertical-align: middle;
}

.mdl-demo .checkbox-item:before {
  content: "";
  position: absolute;
  left: 0;
  top: 0;
  z-index: 1;
  width: 100%;
  height: 100%;
  border: 2px solid #aaa;
  transition: all 0.3s ease-in-out;
}

.mdl-demo .checkbox-item:checked:before {
  height: 50%;
  -webkit-transform: rotate(-45deg);
  transform: rotate(-45deg);
  border-top-style: none;
  border-right-style: none;
  border-color: #2196f3;
}

.tag {
  background-color: #f4f4f4;
  border: 1px solid #e9e9e9;
  padding: 2px 0 2px 2px;
  border-radius: 2px;
  display: inline-block;
}
.tag:focus-within {
  background-color: #e9e9e9;
  border-color: #a0a0a0;
}
.tag-remove {
  font-size: 14px;
  padding: 5px;
  color: #f44336;
  line-height: 100%;
  cursor: pointer;
  background-color: transparent;
  border: none;
  outline: none;
}
.tag-remove.disabled,
.tag-remove.readOnly {
  cursor: not-allowed;
}
.tag-remove:focus {
  color: #3c3c3c;
}
.tag-remove:hover {
  color: #ff7600;
  font-size: 14px;
}
.tag-remove.disabled,
.tag-remove.readOnly {
  cursor: not-allowed;
}
.tag-remove:focus {
  color: #3c3c3c;
}
.node > label {
  cursor: pointer;
  margin-left: 2px;
}
.tag-list {
  display: inline;
  padding: 0;
  margin: 0;
}
.tag-item {
  display: inline-block;
  margin: 4px;
}
.tag-item .search {
  border: none;
  border-bottom: 1px solid #ccc;
  outline: none;
}
.tag-item:last-child {
  margin-right: 4px;
}
.hide:not(.match-in-children) {
  display: none;
}
.react-dropdown-tree-select .dropdown {
  position: relative;
  display: table;
}
.react-dropdown-tree-select .dropdown .dropdown-trigger {
  padding: 4px;
  line-height: 20px;
  max-height: 200px;
  display: inline-block;
  overflow: auto;
  border: 1px solid #b9b9b9;
}
.react-dropdown-tree-select .dropdown .dropdown-trigger.arrow {
  cursor: pointer;
}
.react-dropdown-tree-select .dropdown .dropdown-trigger.arrow.bottom:after {
  content: "\25BC";
  vertical-align: middle;
  color: #3c3c3c;
  margin-right: 2px;
}
.react-dropdown-tree-select .dropdown .dropdown-trigger.arrow.top:after {
  content: "\25B2";
  vertical-align: middle;
  color: #3c3c3c;
  margin-right: 2px;
}
.react-dropdown-tree-select .dropdown .dropdown-trigger.arrow.disabled {
  cursor: not-allowed;
}
.react-dropdown-tree-select
  .dropdown
  .dropdown-trigger.arrow.disabled.bottom:after {
  color: #b9b9b9;
}
.react-dropdown-tree-select .dropdown .dropdown-content {
  position: relative;
  padding: 4px;
  z-index: 2;
  background: #fff;
  border-top: 1px solid rgba(0, 0, 0, 0.05);
  -webkit-box-shadow: 0 5px 8px rgba(0, 0, 0, 0.15);
  box-shadow: 0 5px 8px rgba(0, 0, 0, 0.15);
  padding-left: 15px;
  overflow-y: auto;
  max-height: 250px;
}
.react-dropdown-tree-select .dropdown .dropdown-content ul {
  margin: 0;
  padding: 0;
}
.node {
  list-style: none;
  white-space: nowrap;
  padding: 10px;
}
.node.leaf.collapsed {
  display: none;
}
.node.disabled > * {
  color: gray;
  cursor: not-allowed;
}
.node.match-in-children.hide .node-label {
  opacity: 0.5;
}
.node.focused {
  background-color: #f4f4f4;
}
.toggle {
  white-space: pre;
  margin-right: 4px;
  cursor: pointer;
}
.toggle:after {
  content: " ";
}
.toggle.collapsed:after {
  content: "+";
}
.toggle.expanded:after {
  content: "-";
}
.searchModeOn .toggle {
  display: none;
}
.checkbox-item,
.radio-item {
  vertical-align: middle;
  margin: 0 4px 0 0;
}
.checkbox-item.simple-select,
.radio-item.simple-select {
  display: none;
}

/* .tree span{display:content !important;} */
.node > label {
  display: contents !important;
}

.customPos .dropdown-content {
  position: absolute !important;
}
.makeStyles-primary-8 {
  box-shadow: 0 2px 2px 0 rgba(39, 163, 176, 0.14),
    0 3px 1px -2px rgba(39, 163, 176, 0.2), 0 1px 5px 0 rgba(39, 163, 176, 0.12);
  background-color: #02501e !important;
}
.makeStyles-warning-11 {
  box-shadow: 0 2px 2px 0 rgba(255, 152, 0, 0.14), 0 3px 1px -2px #ff980033,
    0 1px 5px 0 rgba(255, 152, 0, 0.12);
  background-color: #ffbf00 !important;
}
.bg-success {
  background-color: #008a4a !important;
}
.sidebar .nav-dropdown-toggle::before,
.sidebar .sidebar-minimizer::before {
  background-image: url(images/download.svg) !important;
}
.makeStyles-cardAvatarProfile-62 {
  margin: 1px auto 0 !important;
}
.MuiPaper-elevation1 {
  margin-bottom: 2px;
}
.text-value {
  float: left;
  font-size: 40px;
  margin-top: -10px;
  margin-right: 10px;
}
.text-decription {
  clear: both;
  font-size: 18px;
  margin-bottom: 10px;
}
.no-suggestions {
  float: left;
  margin-top: 13px;
  margin-left: 20px;
}
@media (max-width: 768px) {
  .app-header .navbar-brand {
    left: 38%;
  }
}
fieldset.scheduler-border {
  border: 1px groove #ddd !important;
  padding: 0 1.4em 1.4em 1.4em !important;
  margin: 0 0 1.5em 0 !important;
  -webkit-box-shadow: 0px 0px 0px 0px #000;
  box-shadow: 0px 0px 0px 0px #000;
  border-radius: 5px;
}

legend.scheduler-border {
  font-size: 1em !important;
  font-weight: bold !important;
  text-align: left !important;
  width: auto;
  padding: 0 10px;
  border-bottom: none;
}

@media (min-width: 992px) {
  .modal-lg,
  .modal-xl {
    max-width: 950px;
  }
}

.modal-content {
  border: 0px !important;
}
span.mandatory {
  font-size: 13px;
  color: rgb(255, 0, 0);
}
.sidebar-minimized .sidebar .nav-link:hover {
  background: #4fbb61 !important;
}

.sidebar-minimized .sidebar .nav > .nav-dropdown:hover {
  background: none !important;
}

.list-group-item.active {
  border-color: #0a9a57 !important;
}

/* Let's get this party started */
::-webkit-scrollbar {
  width: 12px;
  cursor: pointer;
}

/* Track */
::-webkit-scrollbar-track {
  -webkit-box-shadow: inset 0 0 6px rgba(0, 0, 0, 0.3);
  -webkit-border-radius: 10px;
  border-radius: 10px;
}

/* Handle */
::-webkit-scrollbar-thumb {
  -webkit-border-radius: 10px;
  border-radius: 10px;
  background: rgba(228, 229, 230, 1);
  -webkit-box-shadow: inset 0 0 6px rgba(0, 0, 0, 0.5);
}
::-webkit-scrollbar-thumb:window-inactive {
  background: rgba(228, 229, 230, 1);
}
.suggestions {
  background-color: white;
  padding-left: 0px;
  margin-left: 16px;
}
.suggestions li {
  border-radius: 0.5rem;
}
.suggestions li:hover {
  color: white;
  border-radius: 0.5rem;
  background-color: #008a4a;
}

.MuiAutocomplete-input {
  padding: 9.5px 4px !important;
}
.MuiAutocomplete-inputRoot {
  padding: 4px !important;
}
